Inferencia/model0_optuna.pt (torch, 21263 bytes, 9 tensors)

weight f4 [4, 15]
00000000: 576a cdbe e36a 9abf 0674 fa3e 5ac4 d23e
00000010: 2113 b7bf d6b3 c8be e8ce 0fc0 7a97 9a3f
00000020: 0497 3abf d172 40c0 5262 7dbf 3350 243f
00000030: 2106 a93f 5f92 183e 3fd7 a2be a34d 07bf
00000040: 95a3 563f 083a 183f cd58 df3d 9686 2f3f
00000050: f4d2 0b3e 53c2 ea3f 8b8a 72bf 21b8 713f
00000060: f2ad 2240 bcd9 c3be f071 d4be fbb6 a2bf
00000070: b0cb ac3c aadd 4b3e 2f79 01bf 4b42 933f
00000080: 012e 2d3f f99d 0c3e ece8 623f 7d42 673e
00000090: 49ef c73f 6f47 13bf b237 9a3f e2a2 0e40
000000a0: fddb 46bf d861 2abe 75a2 b2bf 4fa8 85bc
000000b0: a9d8 f13c 02a7 2dbf 4d05 243f a09d 263f
000000c0: 43ba 9c3e a3f6 cf3e 2d97 653d a5ed f83f
000000d0: 9510 39bf 5aa7 963f 977a 0b40 a0ee 42bf
000000e0: d4b4 6ebe f2f7 b0bf 3acb 8ebd e3f5 913e
-0.40120193 -1.2063869 0.48916644 0.4116543 -1.4302713 -0.39199704 -2.2470036 1.2077477
-0.7288668 -3.0070078 -0.9897815 0.64184874 1.3204995 0.14899586 -0.31804845 -0.5285284
0.83843356 0.5946355 0.10905609 0.68564737 0.13654691 1.8340553 -0.9474265 0.94421583
2.5418668 -0.38252056 -0.41493177 -1.2712091 0.02109322 0.19908777 -0.50575536 1.1504606
0.6764832 0.13732137 0.8863666 0.22583957 1.5619899 -0.57530874 1.2048247 2.2286916
-0.77679425 -0.16638887 -1.3955828 -0.016315607 0.029522257 -0.6783296 0.6407059 0.65084267
0.30610856 0.40617856 0.056052376 1.9447523 -0.7229093 1.1769822 2.1793573 -0.7614536
-0.23311168 -1.3825667 -0.06972356 0.2850791

bias f4 [4]
00000000: 610e 513e 40d0 b4bf 0f22 a0bf cfde dbbf
0.20415641 -1.4126053 -1.2510394 -1.7177371

weight f4 [12, 4]
00000000: 9a2c c1bf c7f1 8d3f 5440 f8bd 0051 9abe
00000010: 8bcd cbbf 19fa 433e eb46 8a3e f65d a23e
00000020: 4440 57be 34cc 663e c367 a53e 7513 da3e
00000030: 3ce5 a2be 28f9 e6be 3cb0 dabe b89b 2fbe
00000040: 845e bfbf bf07 e63e 5095 6abe 871b 3d3f
00000050: 3e2c 26bf 95c8 ef3e 979c 343f 51fb c8be
00000060: 24fa ecbf c711 cbbe 80e7 fe3e d3a3 093f
00000070: 2863 a1bf fd10 92be 1814 4bbe d3e0 dd3f
00000080: 563a 13c0 45b8 793f 08f6 4dbe 5ea1 933d
00000090: 142b 03bf c197 5f3e 2810 c83e bf8c 9a3e
000000a0: 5f90 28bf 549f 98be a88b 943f 2f8f b5be
000000b0: 94dd d43e 2e5b f2bd 4100 34be 2e1b 13be
-1.5091736 1.108941 -0.121216446 -0.30139923 -1.5922102 0.19138373 0.2700723 0.31712312
-0.21020609 0.22538835 0.32305726 0.4259297 -0.31815517 -0.45111966 -0.4271258 -0.17149246
-1.4950719 0.44927785 -0.2290852 0.7387013 -0.6491126 0.4683272 0.7055144 -0.3925424
-1.8513837 -0.39662 0.49785995 0.537656 -1.2608385 -0.28528586 -0.19831884 1.7334236
-2.3004355 0.975468 -0.20113385 0.07208513 -0.51237607 0.21835233 0.39074826 0.30185506
-0.6584529 -0.29809058 1.160512 -0.35460803 0.415753 -0.118337974 -0.17578222 -0.14365837

bias f4 [12]
00000000: f0e1 32bf 2a81 0fbd 8b1f 803e 7c44 34be
00000010: abb6 153e e1d6 dd3d 309a de3d 4472 06be
00000020: 4564 5ebd c963 4a3d d131 4bbf 2e7a 7dbf
-0.69876003 -0.03503529 0.25024065 -0.1760425 0.14620464 0.108320005 0.10869253 -0.13129526
-0.054294843 0.04941157 -0.7937289 -0.99014556

weight f4 [25, 12]
00000000: 9b78 313f 2aa4 03bf cd5e 2a3e ae8c ba3b
00000010: 6d7a 19bf 2167 f2be 96bb a9be ac1e b73e
00000020: 02a8 ecbe 3b70 29bf fb84 293f dfe9 25be
00000030: 08c6 c5be 3a48 113f 37d0 1b3f 58c4 4cbe
00000040: e038 09c0 2010 b4bf 6a1a 243e c4ab 1ebf
00000050: 68b0 f4be b3fc 25be ec29 69bf ebab 66be
00000060: e22d 46c0 0a5e a3bf 745e f7be 1c9e a1bd
00000070: c1d1 09bf ed38 19bf a9e2 34bf 91dc 39bf
00000080: 6f87 98bf c6fc 0cbf 08ee 53c0 8375 c03d
00000090: ede7 2ebe 52db 833e 803d d83e 67b0 103e
000000a0: 1b1c 163f 380b a53d 9477 59bf d462 9ebf
000000b0: dd10 713e 1703 7e3e f9ab fc3d d634 34bd
000000c0: 2c40 a73e 3aa4 af3d 5e01 133d 53d1 b13c
000000d0: ea37 033e 00dd ffbd 2f6a 2b3f 355a 093e
000000e0: b75f 923e f1d3 72be 06b9 f93e dca7 1bbf
000000f0: bac8 6d3e 2144 153e 970a 563e f609 81bd
00000100: 3111 1abe abcc 363f 2b17 89be 4294 e63e
00000110: f97a a3be 2e4c c53d f586 e5bf 860e f93c
00000120: dc3a 113f 23d3 bb3b deb5 2fbd ea89 913e
00000130: 55ac 873e a447 5abf d679 063f 6bbd 483e
00000140: 9b4c 01bf bc34 f63e 3530 89bf 6931 48be
00000150: 2fd4 07c0 9653 b6c0 bdfa 55bf ed98 6fbe
00000160: 1a3b 8ec0 9f35 7fc0 52bc 9ac0 a960 a0c0
00000170: e115 83c0 4bd8 93c0 9376 cfbf 89fa 0a3e
00000180: 7dee a3bf 64f8 c6be db5f ddbd 32e7 e73c
00000190: fe3d debe 1ebf 70bf 0d4c 043f 0113 8bbf
000001a0: 7a64 593f 6a77 923e e1aa 5bbf 0b7d 09be
000001b0: 9fc9 dcbf 6fe2 023f 18cd 89be b070 103d
000001c0: 6933 f33e 795c 40bf 4d4b 8ebe 7af6 6d3d
000001d0: f14a debd 4466 80bd 72ef db3e 4c00 93be
000001e0: f906 0cc0 775f 31bf 4fd5 cbbe 6aa1 3b3e
000001f0: 7759 04bf a97d e2be c4f3 32bf 6588 27bf
00000200: 1639 18c0 afae 47bf 37be 86bf c37e 30bf
00000210: 4108 013f c443 983c 1d4c dc3d 61ad 823e
00000220: 02ef 503e 68b4 733d 7ae2 1dbc 21ee 1c3f
00000230: f749 1d3f 303b 8e3d 8f4a 873f 88ac 093e
00000240: 972b a3bf 477f 44bf 7410 9abf cf06 a2bd
00000250: b1a2 11c0 ce01 81bf 70cc b1bf 6b75 07bf
00000260: 8ce4 1cbf c9d2 f83e cd70 1fbf 9008 013f
00000270: 26a6 6fbf 7e9d 323c afb5 f5bf 41c2 a8bb
00000280: 3b07 023f 152b 0e3f f734 13c0 e142 25bf
00000290: b21c 7cbf 28ae c7be d49e 9f3d ce0e 87bf
000002a0: 8491 e0bf 3462 9dbd 8fca 8f3e 9bf1 1bbd
000002b0: 8058 e33e 9252 9a3e 59a4 8c3e 9170 abbf
000002c0: b65f 61bf 5612 be3e 5138 983e 1362 e8bd
000002d0: af41 d6bf ad69 8d3f 7c3c 47bf 558c 55be
000002e0: e773 54bf 3fa6 fabe dfc2 8fbf d407 d1be
000002f0: da4b 3fbf 1f39 e2be b1f9 53bf 8bd4 02bf
00000300: ac16 873e 1b9d 9cbd acef bfbe 0fe4 523d
00000310: 34ba 1a3f ca96 f43d 7a3b eb3e bce9 87bf
00000320: 22d6 47bf 5a5b 6cbf 1f2c 1bbe 13b7 e4be
00000330: df06 b63e eda4 ad3d dbfc 43be 3a3a 113e
00000340: 4028 16bf e756 41be e51f 523f 73ce a1bf
00000350: 2895 153f 2cfa 19be 9a28 79bf 54f8 913d
00000360: ebf6 9abf 8776 9dbe 0a68 863f baa0 543c
00000370: a35d 39be 092b 79bf fe8f afbf 74a7 eabe
00000380: 506e 09bf 50dc b5bc dae0 71bf 30fc 29bf
00000390: 2de5 1bc0 0eef 85c0 ab57 83bf 5014 62be
000003a0: beae 59c0 3d4e 0cc0 656a 40c0 a13f 8cc0
000003b0: 621b 42c0 bd1c 28c0 9e9b e8bf 54a0 7c3e
000003c0: edf1 12c0 0ca9 8dc0 2ee5 45bf 0bea 7abe
000003d0: 80d9 33c0 82df 1fc0 ff1d a0c0 4739 33c0
000003e0: ff5f 7bc0 db93 8fc0 b58b b0bf 905b 723e
000003f0: cb09 fdbf f7c0 b2c0 12b1 b0c0 6d50 5bbd
0.69324654 -0.5142237 0.16637726 0.00569304 -0.5995243 -0.47344306 -0.3315093 0.35765588
-0.4622193 -0.66186875 0.6621854 -0.16202496 -0.38627648 0.56750834 0.60864586 -0.19996774
-2.1440964 -1.4067421 0.16025701 -0.61980844 -0.47790837 -0.16209678 -0.9107959 -0.22526519
-3.0965505 -1.2763073 -0.4831425 -0.07891485 -0.53835684 -0.59852487 -0.70658356 -0.7260218
-1.1916331 -0.550732 -3.3114033 0.093974136 -0.1708066 0.25753266 0.4223442 0.14129792
0.58636636 0.080587804 -0.84948087 -1.237391 0.23541589 0.24805866 0.12337489 -0.0439957
0.32666147 0.085762456 0.035889976 0.021706259 0.12814298 -0.12493324 0.669589 0.13413318
0.2858865 -0.23713662 0.48773974 -0.6080301 0.23221102 0.1457677 0.20902477 -0.06300728
-0.1504562 0.7140605 -0.26775488 0.45034987 -0.31929758 0.09633671 -1.7931811 0.030402433
0.5673044 0.0057319566 -0.04289805 0.28425533 0.26498666 -0.85265565 0.52529657 0.19603507
-0.50507516 0.48087108 -1.0717837 -0.19550098 -2.1223257 -5.6977034 -0.8358572 -0.2339818
-4.4447145 -3.9876478 -4.8354883 -5.0117993 -4.096421 -4.620153 -1.6208061 0.13572134
-1.2807156 -0.38861382 -0.108092986 0.028308485 -0.4340667 -0.9404162 0.51678544 -1.0865175
0.8491894 0.2860673 -0.85807616 -0.13426606 -1.724903 0.5112676 -0.26914287 0.035263717
0.4750016 -0.751411 -0.27791825 0.058096386 -0.10854138 -0.062695056 0.4295612 -0.28711164
-2.1879256 -0.6928629 -0.3981118 0.18323293 -0.5169901 -0.44236496 -0.69903207 -0.65442497
-2.3784842 -0.7800092 -1.0526799 -0.68943423 0.5040322 0.018587 0.10756705 0.25522903
0.20403674 0.05949822 -0.009636516 0.61300856 0.61440986 0.06944883 1.0569628 0.13444722
-1.2747678 -0.7675671 -1.2036271 -0.07911455 -2.275555 -1.0078676 -1.3890514 -0.5291354
-0.61286235 0.48598316 -0.62281495 0.5040369 -0.936129 0.010901807 -1.919607 -0.00515011
0.5079228 0.5553449 -2.3001077 -0.64555174 -0.98481286 -0.39000058 0.07793966 -1.0551393
-1.7544408 -0.076847464 0.28084227 -0.03807221 0.44403458 0.3014112 0.27469137 -1.3393728
-0.8803667 0.37123364 0.29730466 -0.11346831 -1.6738795 1.1047875 -0.77826667 -0.20854314
-0.8298935 -0.4895496 -1.1231345 -0.40826285 -0.74725115 -0.44184205 -0.82802874 -0.51105565
0.26384485 -0.07647153 -0.37487543 0.051487025 0.60440373 0.11942823 0.45943815 -1.0618205
-0.78061116 -0.9232689 -0.1515355 -0.44670925 0.35552117 0.08478723 -0.19139425 0.14182368
-0.58655167 -0.18880807 0.8207992 -1.2641128 0.5843072 -0.15036839 -0.9732758 0.07127443
-1.2106603 -0.30754492 1.05005 0.012977773 -0.18102126 -0.9733129 -1.3715818 -0.45830882
-0.5368395 -0.02219978 -0.9448372 -0.6640043 -2.4358628 -4.1854315 -1.0261129 -0.22078061
-3.4012904 -2.1922753 -3.0064938 -4.382767 -3.0329213 -2.626754 -1.8172491 0.24670535
-2.296016 -4.4268856 -0.77302825 -0.24503343 -2.8101501 -2.4980168 -5.0036616 -2.800371
-3.9277341 -4.486799 -1.3792635 0.23667741 -1.9768614 -5.5860553 -5.521615 -0.053543497

bias f4 [25]
00000000: 1ef7 7dbe f34d 59be 7d53 603f da9f f0be
00000010: 887b 64bf 0b2f b8be 1179 1bbe c7f7 e43e
00000020: 42ae b9be 38a9 8ebe 7d0a 7a3f 3207 bcbf
00000030: dbf9 2b3e 61ca 4abe 8060 dcbe 61a1 d9bd
00000040: 8ea5 9ebe 584b 95bf 19fd 01bf 192e ca3e
00000050: 2e52 e63e 98d4 d93e d1a9 91be 09b7 49be
00000060: 55fd cfbf
-0.24801299 -0.21221142 0.87627393 -0.46996957 -0.89250994 -0.3597339 -0.15182902 0.4472029
-0.3626576 -0.2786348 0.97672254 -1.4689696 0.16794531 -0.19803764 -0.43042374 -0.10626484
-0.30985683 -1.1663618 -0.5077682 0.39488295 0.44984573 0.4254501 -0.28449872 -0.19698729
-1.6249186

weight f4 [9, 25]
00000000: b80e c93e 4769 0e3e ab59 81be 6b91 8f3d
00000010: b499 e43e 2210 8f3e a899 873d 6397 1dc0
00000020: d41f 6e3e 2c25 793e 12e6 92be 4e17 10c0
00000030: b97e 843f cf73 a33e 97a9 953d fe29 773e
00000040: c576 ecbd 3ec4 b73d cd37 563d 3464 fcbf
00000050: 9e8e 22c0 63de 3ac0 e54d 613d 47ee 4d3e
00000060: 8eb2 be3e 287f d33d 3acf 353e 0a3c bbbf
00000070: 8159 b63d 4c4c 1f3d b9b4 2c3e 9251 dc3d
00000080: 531e f8bf 49ba 9dbd 1193 1c3e 5a78 04c0
00000090: f40e 273e 7913 203f 0d51 ffbb 0c21 6d3e
000000a0: ccb9 773e 6a5a 183e 0523 fb3d da26 aa3e
000000b0: c03d 10c0 0793 ebbf 61fd f6bf cf98 c73c
000000c0: 1742 d73d f507 973b 609f 453d 03bc f33e
000000d0: 7fc7 2ac0 04ae fe3d d70a fb3d 0ecb 083e
000000e0: ebdc b83d 9fe1 e6bf c455 503d 5918 503c
000000f0: 9e16 fcbf 2ba8 043e 7da6 2dbe f53d c83d
00000100: 4a2b 753e 33fb 263f 6275 c63d f935 943d
00000110: d9d4 423e 60e2 bcbf aa5d 14c0 cb0f 77bf
00000120: 6177 023c 3449 483e 6260 403e 2514 823c
00000130: 46b5 243e b2a0 9ebf 4b80 f33d 9109 143d
00000140: 2e19 023e 66ce 0f3e 907e c0bf b280 383e
00000150: 77cf e63d f088 eebf a0b3 773d 34ba 6a3d
00000160: 2e30 8c3e 5b64 843e d42b ba3e c667 523e
00000170: ca7b 033d a5c3 933e add9 bdbf fa57 0ec0
00000180: 9b1d bbbf fa7b 1dbe c977 8f3e 63ac 683e
00000190: 2125 c8bf cb49 1abf 79b5 c93d 6cef 95bf
000001a0: 7faa 87bf 238c cebe 254d 8cbf 4ec6 803f
000001b0: 39a2 86bf d6ed 3bbf a5d9 4cbd 1a90 1ebf
000001c0: dac3 943e 1ae7 0abf 015d 46be 9af6 80bf
000001d0: bcb5 2fbf ab1a 4cbf 44ab 21bf cb6e 4c3f
000001e0: 8f93 523f c245 853f 8f26 02be c6de b5bf
000001f0: 2469 30be b298 e63d 7638 fc3d 5778 93bf
00000200: d7d1 f13d 33c2 a63d aa81 463d b073 1c3d
00000210: 1b69 e7bf 99c7 6f3c 3deb 323e 2c98 b5bf
00000220: 8805 393e f3f1 583f eb16 a03d aa6c 423e
00000230: 2a2c 343f 2b5c 5e3e 77c5 863d 8d04 493e
00000240: 682c 12c0 860b fdbf 6367 0bc0 b21a 71bd
00000250: df50 1a3e 027f 313e eb56 a63d 6b67 0d3e
00000260: 7aa3 d9bf 3977 f33d 24a7 11bd dc2d 5a3d
00000270: 4bad 533c 417f 1fc0 f271 053e 9cd6 173e
00000280: e482 dfbf 5455 823e eb85 643f 5b73 a03e
00000290: e61c 123e f423 443e e11f 223e 33d3 d23d
000002a0: 63b0 d93e 382c 27c0 5b28 2dc0 ac0f 1ec0
000002b0: 76e3 3c3d 2743 803e 8659 d93d 662a c73d
000002c0: cdd6 913e e1bb 37bf 54db 013e 1328 cd3d
000002d0: 7bd2 bc3d c5ab 7f3d f93b 2fc0 1f47 823e
000002e0: 9286 8d3b 5c04 8fbf ada7 c53d 5ca1 8a3f
000002f0: 34d5 813e 34f4 d13d f01d f83e 6916 933e
00000300: 9110 8e3e 981c 573e e7c5 0fc0 4b10 11c0
00000310: 28f1 33c0 e639 21bd 96e2 503e 038a a93d
00000320: 9761 09bf 499a 22bf 5566 aa3d c62c 6fbf
00000330: 2c30 3cbf d2de 99bf 3f28 5cbf 2abd 613f
00000340: 8013 91bf 6fee cebf e20a 043d 9040 6ebf
00000350: 814a b03e dfee dabe f2e9 54bf 0653 80bf
00000360: b9f6 a7be 2b74 87bf e278 6ebf c48b 3f3f
00000370: a0a0 473f 8f10 9d3f 7d46 8dbc acf5 60bf
00000380: 4ec4 32be
0.39269042 0.13907348 -0.25263724 0.07010158 0.44648516 0.27941996 0.066211045 -2.462365
0.23254329 0.24330586 -0.28691155 -2.2514224 1.0351173 0.31924292 0.07307737 0.24137112
-0.11546091 0.08972977 0.05229931 -1.971808 -2.5399547 -2.9198234 0.055005927 0.20110427
0.372456 0.103269875 0.17754832 -1.4627697 0.0890379 0.03889112 0.16865815 0.10757746
-1.9384254 -0.07701547 0.15290476 -2.0698457 0.16314298 0.6252971 -0.0077916444 0.23157138
0.2419197 0.1487824 0.12262539 0.33232766 -2.253769 -1.8404244 -1.9296075 0.024364857
0.105106525 0.004609103 0.048247695 0.4760438 -2.6684263 0.124355346 0.12257927 0.13358709
0.09026512 -1.8037604 0.050863042 0.012701117 -1.9694402 0.12954776 -0.16958041 0.09777442
0.23942295 0.6522705 0.09690358 0.07236857 0.19026507 -1.4756584 -2.3182168 -0.96508473
0.007963032 0.19559175 0.18786767 0.015878746 0.16084775 -1.239279 0.11889704 0.036141936
0.12704918 0.14043579 -1.5038624 0.18017843 0.112700395 -1.863554 0.060474038 0.057306483
0.27380508 0.25857815 0.36361563 0.20547399 0.032100476 0.28860202 -1.4832054 -2.2241197
-1.461841 -0.15379325 0.28021076 0.2272201 -1.5636331 -0.6026885 0.09849066 -1.1713691
-1.0598906 -0.4034129 -1.0961043 1.0060518 -1.0518256 -0.73409784 -0.05001225 -0.6193863
0.29055673 -0.54258883 -0.19371416 -1.0075257 -0.6863668 -0.7972819 -0.63151956 0.79856557
0.82256407 1.0411913 -0.12710021 -1.420861 -0.17227608 0.11259593 0.123154566 -1.15211
0.11807602 0.08142509 0.0484635 0.038196266 -1.8078951 0.01463499 0.17472549 -1.4187064
0.18068516 0.84744185 0.07816871 0.18986765 0.7037989 0.21714847 0.06580632 0.19630642
-2.2839603 -1.9769142 -2.1781852 -0.05886335 0.15069912 0.17333606 0.08122047 0.13808982
-1.7003014 0.11887974 -0.03555979 0.05326639 0.012919734 -2.492142 0.13031748 0.1482796
-1.746182 0.25455725 0.8926684 0.3133801 0.14268836 0.1915434 0.15832473 0.10294189
0.42517385 -2.612074 -2.705588 -2.4697065 0.04611536 0.25051233 0.10612778 0.09724884
0.28484192 -0.71771055 0.12681323 0.10017409 0.092198335 0.06241967 -2.7380354 0.25444886
0.0043190205 -1.1173205 0.09651122 1.0830493 0.25357974 0.10251656 0.4846034 0.28728035
0.27747014 0.21007001 -2.246454 -2.2666194 -2.811594 -0.039361857 0.20398936 0.08278277
-0.53664535 -0.6351667 0.083202995 -0.93427694 -0.73511004 -1.2021124 -0.8599891 0.88179266
-1.1334076 -1.6166514 0.03223694 -0.93067265 0.34431842 -0.4276037 -0.8316947 -1.0025337
-0.32805422 -1.0582327 -0.931532 0.7482264 0.7797947 1.2270678 -0.017245525 -0.87874866
-0.17457697

bias f4 [9]
00000000: 4d12 c93d 2a15 3f3f 1dd9 5d3f aa08 1d3f
00000010: c707 1b3f e816 193f 9d96 463f 1dfe 093f
00000020: 8c32 223f
0.09817944 0.7464167 0.86659414 0.61341345 0.6055874 0.5980058 0.7757357 0.5390337
0.6335838

weight f4 [1, 9]
00000000: f9d5 bb3d df9d 673d 4106 a93d f527 523d
00000010: baa4 8dbe e42b bb3d 76d1 bf3d 2ba7 623d
00000020: c1fe 84be
0.091716714 0.056547042 0.08253146 0.051307637 -0.2766474 0.09139231 0.093661234 0.055335205
-0.25975612
